…
Namespace(batchSize=2, bnMomentum=0.1, epochs=500, evaluate=False, imageSize=256, lr=0.005, print_freq=1, resizedImageSize=224, resume='', saveTest='True', save_dir='save_MiccaiSegPlusClass', start_epoch=0, wd=0.0005, workers=4)
Namespace(batchSize=2, bnMomentum=0.1, epochs=500, evaluate=False, imageSize=256, lr=0.005, print_freq=1, resizedImageSize=224, resume='', saveTest='True', save_dir='save_MiccaiSegPlusClass', start_epoch=0, wd=0.0005, workers=4)
Namespace(batchSize=2, bnMomentum=0.1, epochs=500, evaluate=False, imageSize=256, lr=0.005, print_freq=1, resizedImageSize=224, resume='', saveTest='True', save_dir='save_MiccaiSegPlusClass', start_epoch=0, wd=0.0005, workers=4)
=> no checkpoint found at ''
segnetPlusClass(
  (encoder): encoder(
    (main): Sequential(
      (0): Conv2d(3, 64, kernel_size=(4, 4), stride=(2, 2), padding=(1, 1))
      (1): ReLU(inplace=True)
      (2): Conv2d(64, 128, kernel_size=(4, 4), stride=(2, 2), padding=(1, 1))
      (3): BatchNorm2d(128, eps=1e-05, momentum=0.1, affine=True, track_running_stats=True)
      (4): ReLU(inplace=True)
      (5): Conv2d(128, 256, kernel_size=(4, 4), stride=(2, 2), padding=(1, 1))
      (6): BatchNorm2d(256, eps=1e-05, momentum=0.1, affine=True, track_running_stats=True)
      (7): ReLU(inplace=True)
      (8): Conv2d(256, 512, kernel_size=(4, 4), stride=(2, 2), padding=(1, 1))
      (9): BatchNorm2d(512, eps=1e-05, momentum=0.1, affine=True, track_running_stats=True)
      (10): ReLU(inplace=True)
      (11): Conv2d(512, 1024, kernel_size=(4, 4), stride=(1, 1))
      (12): BatchNorm2d(1024, eps=1e-05, momentum=0.1, affine=True, track_running_stats=True)
      (13): ReLU(inplace=True)
    )
  )
  (decoder): decoder(
    (main): Sequential(
      (0): ConvTranspose2d(1024, 512, kernel_size=(4, 4), stride=(1, 1), bias=False)
      (1): BatchNorm2d(512, eps=1e-05, momentum=0.1, affine=True, track_running_stats=True)
      (2): Dropout2d(p=0.5, inplace=False)
      (3): ReLU(inplace=True)
      (4): ConvTranspose2d(512, 256, kernel_size=(4, 4), stride=(2, 2), padding=(1, 1), bias=False)
      (5): BatchNorm2d(256, eps=1e-05, momentum=0.1, affine=True, track_running_stats=True)
      (6): Dropout2d(p=0.5, inplace=False)
      (7): ReLU(inplace=True)
      (8): ConvTranspose2d(256, 128, kernel_size=(4, 4), stride=(2, 2), padding=(1, 1), bias=False)
      (9): BatchNorm2d(128, eps=1e-05, momentum=0.1, affine=True, track_running_stats=True)
      (10): Dropout2d(p=0.5, inplace=False)
      (11): ReLU(inplace=True)
      (12): ConvTranspose2d(128, 64, kernel_size=(4, 4), stride=(2, 2), padding=(1, 1), bias=False)
      (13): BatchNorm2d(64, eps=1e-05, momentum=0.1, affine=True, track_running_stats=True)
      (14): ReLU(inplace=True)
      (15): ConvTranspose2d(64, 19, kernel_size=(4, 4), stride=(2, 2), padding=(1, 1), bias=False)
    )
    (classifier): Conv2d(19, 7, kernel_size=(224, 224), stride=(1, 1))
    (smax): Softmax(dim=1)
    (sigmoid): Sigmoid()
  )
)
>>>>>>>>>>>>>>>>>>>>>>>Training<<<<<<<<<<<<<<<<<<<<<<<
Namespace(batchSize=2, bnMomentum=0.1, epochs=500, evaluate=False, imageSize=256, lr=0.005, print_freq=1, resizedImageSize=224, resume='', saveTest='True', save_dir='save_MiccaiSegPlusClass', start_epoch=0, wd=0.0005, workers=4)
=> no checkpoint found at ''
segnetPlusClass(
  (encoder): encoder(
    (main): Sequential(
      (0): Conv2d(3, 64, kernel_size=(4, 4), stride=(2, 2), padding=(1, 1))
      (1): ReLU(inplace=True)
      (2): Conv2d(64, 128, kernel_size=(4, 4), stride=(2, 2), padding=(1, 1))
      (3): BatchNorm2d(128, eps=1e-05, momentum=0.1, affine=True, track_running_stats=True)
      (4): ReLU(inplace=True)
      (5): Conv2d(128, 256, kernel_size=(4, 4), stride=(2, 2), padding=(1, 1))
      (6): BatchNorm2d(256, eps=1e-05, momentum=0.1, affine=True, track_running_stats=True)
      (7): ReLU(inplace=True)
      (8): Conv2d(256, 512, kernel_size=(4, 4), stride=(2, 2), padding=(1, 1))
      (9): BatchNorm2d(512, eps=1e-05, momentum=0.1, affine=True, track_running_stats=True)
      (10): ReLU(inplace=True)
      (11): Conv2d(512, 1024, kernel_size=(4, 4), stride=(1, 1))
      (12): BatchNorm2d(1024, eps=1e-05, momentum=0.1, affine=True, track_running_stats=True)
      (13): ReLU(inplace=True)
    )
  )
  (decoder): decoder(
    (main): Sequential(
      (0): ConvTranspose2d(1024, 512, kernel_size=(4, 4), stride=(1, 1), bias=False)
      (1): BatchNorm2d(512, eps=1e-05, momentum=0.1, affine=True, track_running_stats=True)
      (2): Dropout2d(p=0.5, inplace=False)
      (3): ReLU(inplace=True)
      (4): ConvTranspose2d(512, 256, kernel_size=(4, 4), stride=(2, 2), padding=(1, 1), bias=False)
      (5): BatchNorm2d(256, eps=1e-05, momentum=0.1, affine=True, track_running_stats=True)
      (6): Dropout2d(p=0.5, inplace=False)
      (7): ReLU(inplace=True)
      (8): ConvTranspose2d(256, 128, kernel_size=(4, 4), stride=(2, 2), padding=(1, 1), bias=False)
      (9): BatchNorm2d(128, eps=1e-05, momentum=0.1, affine=True, track_running_stats=True)
      (10): Dropout2d(p=0.5, inplace=False)
      (11): ReLU(inplace=True)
      (12): ConvTranspose2d(128, 64, kernel_size=(4, 4), stride=(2, 2), padding=(1, 1), bias=False)
      (13): BatchNorm2d(64, eps=1e-05, momentum=0.1, affine=True, track_running_stats=True)
      (14): ReLU(inplace=True)
      (15): ConvTranspose2d(64, 19, kernel_size=(4, 4), stride=(2, 2), padding=(1, 1), bias=False)
    )
    (classifier): Conv2d(19, 7, kernel_size=(224, 224), stride=(1, 1))
    (smax): Softmax(dim=1)
    (sigmoid): Sigmoid()
  )
)
>>>>>>>>>>>>>>>>>>>>>>>Training<<<<<<<<<<<<<<<<<<<<<<<
Namespace(batchSize=2, bnMomentum=0.1, epochs=500, evaluate=False, imageSize=256, lr=0.005, print_freq=1, resizedImageSize=224, resume='', saveTest='True', save_dir='save_MiccaiSegPlusClass', start_epoch=0, wd=0.0005, workers=4)
=> no checkpoint found at ''
segnetPlusClass(
  (encoder): encoder(
    (main): Sequential(
      (0): Conv2d(3, 64, kernel_size=(4, 4), stride=(2, 2), padding=(1, 1))
      (1): ReLU(inplace=True)
      (2): Conv2d(64, 128, kernel_size=(4, 4), stride=(2, 2), padding=(1, 1))
      (3): BatchNorm2d(128, eps=1e-05, momentum=0.1, affine=True, track_running_stats=True)
      (4): ReLU(inplace=True)
      (5): Conv2d(128, 256, kernel_size=(4, 4), stride=(2, 2), padding=(1, 1))
      (6): BatchNorm2d(256, eps=1e-05, momentum=0.1, affine=True, track_running_stats=True)
      (7): ReLU(inplace=True)
      (8): Conv2d(256, 512, kernel_size=(4, 4), stride=(2, 2), padding=(1, 1))
      (9): BatchNorm2d(512, eps=1e-05, momentum=0.1, affine=True, track_running_stats=True)
      (10): ReLU(inplace=True)
      (11): Conv2d(512, 1024, kernel_size=(4, 4), stride=(1, 1))
      (12): BatchNorm2d(1024, eps=1e-05, momentum=0.1, affine=True, track_running_stats=True)
      (13): ReLU(inplace=True)
    )
  )
  (decoder): decoder(
    (main): Sequential(
      (0): ConvTranspose2d(1024, 512, kernel_size=(4, 4), stride=(1, 1), bias=False)
      (1): BatchNorm2d(512, eps=1e-05, momentum=0.1, affine=True, track_running_stats=True)
      (2): Dropout2d(p=0.5, inplace=False)
      (3): ReLU(inplace=True)
      (4): ConvTranspose2d(512, 256, kernel_size=(4, 4), stride=(2, 2), padding=(1, 1), bias=False)
      (5): BatchNorm2d(256, eps=1e-05, momentum=0.1, affine=True, track_running_stats=True)
      (6): Dropout2d(p=0.5, inplace=False)
      (7): ReLU(inplace=True)
      (8): ConvTranspose2d(256, 128, kernel_size=(4, 4), stride=(2, 2), padding=(1, 1), bias=False)
      (9): BatchNorm2d(128, eps=1e-05, momentum=0.1, affine=True, track_running_stats=True)
      (10): Dropout2d(p=0.5, inplace=False)
      (11): ReLU(inplace=True)
      (12): ConvTranspose2d(128, 64, kernel_size=(4, 4), stride=(2, 2), padding=(1, 1), bias=False)
      (13): BatchNorm2d(64, eps=1e-05, momentum=0.1, affine=True, track_running_stats=True)
      (14): ReLU(inplace=True)
      (15): ConvTranspose2d(64, 19, kernel_size=(4, 4), stride=(2, 2), padding=(1, 1), bias=False)
    )
    (classifier): Conv2d(19, 7, kernel_size=(224, 224), stride=(1, 1))
    (smax): Softmax(dim=1)
    (sigmoid): Sigmoid()
  )
)
>>>>>>>>>>>>>>>>>>>>>>>Training<<<<<<<<<<<<<<<<<<<<<<<
Namespace(batchSize=2, bnMomentum=0.1, epochs=500, evaluate=False, imageSize=256, lr=0.005, print_freq=1, resizedImageSize=224, resume='', saveTest='True', save_dir='save_MiccaiSegPlusClass', start_epoch=0, wd=0.0005, workers=4)
=> no checkpoint found at ''
segnetPlusClass(
  (encoder): encoder(
    (main): Sequential(
      (0): Conv2d(3, 64, kernel_size=(4, 4), stride=(2, 2), padding=(1, 1))
      (1): ReLU(inplace=True)
      (2): Conv2d(64, 128, kernel_size=(4, 4), stride=(2, 2), padding=(1, 1))
      (3): BatchNorm2d(128, eps=1e-05, momentum=0.1, affine=True, track_running_stats=True)
      (4): ReLU(inplace=True)
      (5): Conv2d(128, 256, kernel_size=(4, 4), stride=(2, 2), padding=(1, 1))
      (6): BatchNorm2d(256, eps=1e-05, momentum=0.1, affine=True, track_running_stats=True)
      (7): ReLU(inplace=True)
      (8): Conv2d(256, 512, kernel_size=(4, 4), stride=(2, 2), padding=(1, 1))
      (9): BatchNorm2d(512, eps=1e-05, momentum=0.1, affine=True, track_running_stats=True)
      (10): ReLU(inplace=True)
      (11): Conv2d(512, 1024, kernel_size=(4, 4), stride=(1, 1))
      (12): BatchNorm2d(1024, eps=1e-05, momentum=0.1, affine=True, track_running_stats=True)
      (13): ReLU(inplace=True)
    )
  )
  (decoder): decoder(
    (main): Sequential(
      (0): ConvTranspose2d(1024, 512, kernel_size=(4, 4), stride=(1, 1), bias=False)
      (1): BatchNorm2d(512, eps=1e-05, momentum=0.1, affine=True, track_running_stats=True)
      (2): Dropout2d(p=0.5, inplace=False)
      (3): ReLU(inplace=True)
      (4): ConvTranspose2d(512, 256, kernel_size=(4, 4), stride=(2, 2), padding=(1, 1), bias=False)
      (5): BatchNorm2d(256, eps=1e-05, momentum=0.1, affine=True, track_running_stats=True)
      (6): Dropout2d(p=0.5, inplace=False)
      (7): ReLU(inplace=True)
      (8): ConvTranspose2d(256, 128, kernel_size=(4, 4), stride=(2, 2), padding=(1, 1), bias=False)
      (9): BatchNorm2d(128, eps=1e-05, momentum=0.1, affine=True, track_running_stats=True)
      (10): Dropout2d(p=0.5, inplace=False)
      (11): ReLU(inplace=True)
      (12): ConvTranspose2d(128, 64, kernel_size=(4, 4), stride=(2, 2), padding=(1, 1), bias=False)
      (13): BatchNorm2d(64, eps=1e-05, momentum=0.1, affine=True, track_running_stats=True)
      (14): ReLU(inplace=True)
      (15): ConvTranspose2d(64, 19, kernel_size=(4, 4), stride=(2, 2), padding=(1, 1), bias=False)
    )
    (classifier): Conv2d(19, 7, kernel_size=(224, 224), stride=(1, 1))
    (smax): Softmax(dim=1)
    (sigmoid): Sigmoid()
  )
)
>>>>>>>>>>>>>>>>>>>>>>>Training<<<<<<<<<<<<<<<<<<<<<<<
Namespace(batchSize=2, bnMomentum=0.1, epochs=500, evaluate=False, imageSize=256, lr=0.005, print_freq=1, resizedImageSize=224, resume='', saveTest='True', save_dir='save_MiccaiSegPlusClass', start_epoch=0, wd=0.0005, workers=4)
=> no checkpoint found at ''
segnetPlusClass(
  (encoder): encoder(
    (main): Sequential(
      (0): Conv2d(3, 64, kernel_size=(4, 4), stride=(2, 2), padding=(1, 1))
      (1): ReLU(inplace=True)
      (2): Conv2d(64, 128, kernel_size=(4, 4), stride=(2, 2), padding=(1, 1))
      (3): BatchNorm2d(128, eps=1e-05, momentum=0.1, affine=True, track_running_stats=True)
      (4): ReLU(inplace=True)
      (5): Conv2d(128, 256, kernel_size=(4, 4), stride=(2, 2), padding=(1, 1))
      (6): BatchNorm2d(256, eps=1e-05, momentum=0.1, affine=True, track_running_stats=True)
      (7): ReLU(inplace=True)
      (8): Conv2d(256, 512, kernel_size=(4, 4), stride=(2, 2), padding=(1, 1))
      (9): BatchNorm2d(512, eps=1e-05, momentum=0.1, affine=True, track_running_stats=True)
      (10): ReLU(inplace=True)
      (11): Conv2d(512, 1024, kernel_size=(4, 4), stride=(1, 1))
      (12): BatchNorm2d(1024, eps=1e-05, momentum=0.1, affine=True, track_running_stats=True)
      (13): ReLU(inplace=True)
    )
  )
  (decoder): decoder(
    (main): Sequential(
      (0): ConvTranspose2d(1024, 512, kernel_size=(4, 4), stride=(1, 1), bias=False)
      (1): BatchNorm2d(512, eps=1e-05, momentum=0.1, affine=True, track_running_stats=True)
      (2): Dropout2d(p=0.5, inplace=False)
      (3): ReLU(inplace=True)
      (4): ConvTranspose2d(512, 256, kernel_size=(4, 4), stride=(2, 2), padding=(1, 1), bias=False)
      (5): BatchNorm2d(256, eps=1e-05, momentum=0.1, affine=True, track_running_stats=True)
      (6): Dropout2d(p=0.5, inplace=False)
      (7): ReLU(inplace=True)
      (8): ConvTranspose2d(256, 128, kernel_size=(4, 4), stride=(2, 2), padding=(1, 1), bias=False)
      (9): BatchNorm2d(128, eps=1e-05, momentum=0.1, affine=True, track_running_stats=True)
      (10): Dropout2d(p=0.5, inplace=False)
      (11): ReLU(inplace=True)
      (12): ConvTranspose2d(128, 64, kernel_size=(4, 4), stride=(2, 2), padding=(1, 1), bias=False)
      (13): BatchNorm2d(64, eps=1e-05, momentum=0.1, affine=True, track_running_stats=True)
      (14): ReLU(inplace=True)
      (15): ConvTranspose2d(64, 19, kernel_size=(4, 4), stride=(2, 2), padding=(1, 1), bias=False)
    )
    (classifier): Conv2d(19, 7, kernel_size=(224, 224), stride=(1, 1))
    (smax): Softmax(dim=1)
    (sigmoid): Sigmoid()
  )
)
>>>>>>>>>>>>>>>>>>>>>>>Training<<<<<<<<<<<<<<<<<<<<<<<
[0/499][0/122] Total Loss: 1.5580, Segmentation Loss: 0.9695, Classification Loss: 0.5886
[0/499][1/122] Total Loss: 1.6074, Segmentation Loss: 0.9713, Classification Loss: 0.6361
[0/499][2/122] Total Loss: 1.3899, Segmentation Loss: 0.9681, Classification Loss: 0.4218
…
[0/499][120/122] Total Loss: 1.6094, Segmentation Loss: 0.9019, Classification Loss: 0.7075
[0/499][121/122] Total Loss: 1.6102, Segmentation Loss: 0.9027, Classification Loss: 0.7075
[0/499][122/122] Total Loss: 1.7411, Segmentation Loss: 0.8908, Classification Loss: 0.8504
>>>>>>>>>>>>>>>>>>>>>>>Testing<<<<<<<<<<<<<<<<<<<<<<<
Namespace(batchSize=2, bnMomentum=0.1, epochs=500, evaluate=False, imageSize=256, lr=0.005, print_freq=1, resizedImageSize=224, resume='', saveTest='True', save_dir='save_MiccaiSegPlusClass', start_epoch=0, wd=0.0005, workers=4)
=> no checkpoint found at ''
segnetPlusClass(
  (encoder): encoder(
    (main): Sequential(
      (0): Conv2d(3, 64, kernel_size=(4, 4), stride=(2, 2), padding=(1, 1))
      (1): ReLU(inplace=True)
      (2): Conv2d(64, 128, kernel_size=(4, 4), stride=(2, 2), padding=(1, 1))
      (3): BatchNorm2d(128, eps=1e-05, momentum=0.1, affine=True, track_running_stats=True)
      (4): ReLU(inplace=True)
      (5): Conv2d(128, 256, kernel_size=(4, 4), stride=(2, 2), padding=(1, 1))
      (6): BatchNorm2d(256, eps=1e-05, momentum=0.1, affine=True, track_running_stats=True)
      (7): ReLU(inplace=True)
      (8): Conv2d(256, 512, kernel_size=(4, 4), stride=(2, 2), padding=(1, 1))
      (9): BatchNorm2d(512, eps=1e-05, momentum=0.1, affine=True, track_running_stats=True)
      (10): ReLU(inplace=True)
      (11): Conv2d(512, 1024, kernel_size=(4, 4), stride=(1, 1))
      (12): BatchNorm2d(1024, eps=1e-05, momentum=0.1, affine=True, track_running_stats=True)
      (13): ReLU(inplace=True)
    )
  )
  (decoder): decoder(
    (main): Sequential(
      (0): ConvTranspose2d(1024, 512, kernel_size=(4, 4), stride=(1, 1), bias=False)
      (1): BatchNorm2d(512, eps=1e-05, momentum=0.1, affine=True, track_running_stats=True)
      (2): Dropout2d(p=0.5, inplace=False)
      (3): ReLU(inplace=True)
      (4): ConvTranspose2d(512, 256, kernel_size=(4, 4), stride=(2, 2), padding=(1, 1), bias=False)
      (5): BatchNorm2d(256, eps=1e-05, momentum=0.1, affine=True, track_running_stats=True)
      (6): Dropout2d(p=0.5, inplace=False)
      (7): ReLU(inplace=True)
      (8): ConvTranspose2d(256, 128, kernel_size=(4, 4), stride=(2, 2), padding=(1, 1), bias=False)
      (9): BatchNorm2d(128, eps=1e-05, momentum=0.1, affine=True, track_running_stats=True)
      (10): Dropout2d(p=0.5, inplace=False)
      (11): ReLU(inplace=True)
      (12): ConvTranspose2d(128, 64, kernel_size=(4, 4), stride=(2, 2), padding=(1, 1), bias=False)
      (13): BatchNorm2d(64, eps=1e-05, momentum=0.1, affine=True, track_running_stats=True)
      (14): ReLU(inplace=True)
      (15): ConvTranspose2d(64, 19, kernel_size=(4, 4), stride=(2, 2), padding=(1, 1), bias=False)
    )
    (classifier): Conv2d(19, 7, kernel_size=(224, 224), stride=(1, 1))
    (smax): Softmax(dim=1)
    (sigmoid): Sigmoid()
  )
)
>>>>>>>>>>>>>>>>>>>>>>>Training<<<<<<<<<<<<<<<<<<<<<<<
Namespace(batchSize=2, bnMomentum=0.1, epochs=10, evaluate=False, imageSize=256, lr=0.005, print_freq=1, resizedImageSize=224, resume='', saveTest='True', save_dir='save_MiccaiSegPlusClass', start_epoch=0, wd=0.0005, workers=4)
=> no checkpoint found at ''
segnetPlusClass(
  (encoder): encoder(
    (main): Sequential(
      (0): Conv2d(3, 64, kernel_size=(4, 4), stride=(2, 2), padding=(1, 1))
      (1): ReLU(inplace=True)
      (2): Conv2d(64, 128, kernel_size=(4, 4), stride=(2, 2), padding=(1, 1))
      (3): BatchNorm2d(128, eps=1e-05, momentum=0.1, affine=True, track_running_stats=True)
      (4): ReLU(inplace=True)
      (5): Conv2d(128, 256, kernel_size=(4, 4), stride=(2, 2), padding=(1, 1))
      (6): BatchNorm2d(256, eps=1e-05, momentum=0.1, affine=True, track_running_stats=True)
      (7): ReLU(inplace=True)
      (8): Conv2d(256, 512, kernel_size=(4, 4), stride=(2, 2), padding=(1, 1))
      (9): BatchNorm2d(512, eps=1e-05, momentum=0.1, affine=True, track_running_stats=True)
      (10): ReLU(inplace=True)
      (11): Conv2d(512, 1024, kernel_size=(4, 4), stride=(1, 1))
      (12): BatchNorm2d(1024, eps=1e-05, momentum=0.1, affine=True, track_running_stats=True)
      (13): ReLU(inplace=True)
    )
  )
  (decoder): decoder(
    (main): Sequential(
      (0): ConvTranspose2d(1024, 512, kernel_size=(4, 4), stride=(1, 1), bias=False)
      (1): BatchNorm2d(512, eps=1e-05, momentum=0.1, affine=True, track_running_stats=True)
      (2): Dropout2d(p=0.5, inplace=False)
      (3): ReLU(inplace=True)
      (4): ConvTranspose2d(512, 256, kernel_size=(4, 4), stride=(2, 2), padding=(1, 1), bias=False)
      (5): BatchNorm2d(256, eps=1e-05, momentum=0.1, affine=True, track_running_stats=True)
      (6): Dropout2d(p=0.5, inplace=False)
      (7): ReLU(inplace=True)
      (8): ConvTranspose2d(256, 128, kernel_size=(4, 4), stride=(2, 2), padding=(1, 1), bias=False)
      (9): BatchNorm2d(128, eps=1e-05, momentum=0.1, affine=True, track_running_stats=True)
      (10): Dropout2d(p=0.5, inplace=False)
      (11): ReLU(inplace=True)
      (12): ConvTranspose2d(128, 64, kernel_size=(4, 4), stride=(2, 2), padding=(1, 1), bias=False)
      (13): BatchNorm2d(64, eps=1e-05, momentum=0.1, affine=True, track_running_stats=True)
      (14): ReLU(inplace=True)
      (15): ConvTranspose2d(64, 19, kernel_size=(4, 4), stride=(2, 2), padding=(1, 1), bias=False)
    )
    (classifier): Conv2d(19, 7, kernel_size=(224, 224), stride=(1, 1))
    (smax): Softmax(dim=1)
    (sigmoid): Sigmoid()
  )
)
>>>>>>>>>>>>>>>>>>>>>>>Training<<<<<<<<<<<<<<<<<<<<<<<
[0/9][0/122] Total Loss: 1.6171, Segmentation Loss: 0.9709, Classification Loss: 0.6462
[0/9][1/122] Total Loss: 1.5722, Segmentation Loss: 0.9704, Classification Loss: 0.6018
[0/9][2/122] Total Loss: 1.5692, Segmentation Loss: 0.9674, Classification Loss: 0.6018
…
Mean Precision: 0.12457292594181175, Class-wise Precision: tensor([… dtype=torch.float64)
Mean Recall: 0.1350768689107694, Class-wise Recall: tensor([… dtype=torch.float64)
Mean F1: 0.12143469580350957, Class-wise F1: tensor([… dtype=torch.float64)
>>>>>>>>>>>>>>>>>>>>>>>Training<<<<<<<<<<<<<<<<<<<<<<<
-----use_gpu  False ------
Namespace(batchSize=2, bnMomentum=0.1, epochs=10, evaluate=False, imageSize=256, lr=0.005, print_freq=1, resizedImageSize=224, resume='', saveTest='True', save_dir='save_MiccaiSegPlusClass', start_epoch=0, wd=0.0005, workers=4)
=> no checkpoint found at ''
segnetPlusClass(
  (encoder): encoder(
    (main): Sequential(
      (0): Conv2d(3, 64, kernel_size=(4, 4), stride=(2, 2), padding=(1, 1))
      (1): ReLU(inplace=True)
      (2): Conv2d(64, 128, kernel_size=(4, 4), stride=(2, 2), padding=(1, 1))
      (3): BatchNorm2d(128, eps=1e-05, momentum=0.1, affine=True, track_running_stats=True)
      (4): ReLU(inplace=True)
      (5): Conv2d(128, 256, kernel_size=(4, 4), stride=(2, 2), padding=(1, 1))
      (6): BatchNorm2d(256, eps=1e-05, momentum=0.1, affine=True, track_running_stats=True)
      (7): ReLU(inplace=True)
      (8): Conv2d(256, 512, kernel_size=(4, 4), stride=(2, 2), padding=(1, 1))
      (9): BatchNorm2d(512, eps=1e-05, momentum=0.1, affine=True, track_running_stats=True)
      (10): ReLU(inplace=True)
      (11): Conv2d(512, 1024, kernel_size=(4, 4), stride=(1, 1))
      (12): BatchNorm2d(1024, eps=1e-05, momentum=0.1, affine=True, track_running_stats=True)
      (13): ReLU(inplace=True)
    )
  )
  (decoder): decoder(
    (main): Sequential(
      (0): ConvTranspose2d(1024, 512, kernel_size=(4, 4), stride=(1, 1), bias=False)
      (1): BatchNorm2d(512, eps=1e-05, momentum=0.1, affine=True, track_running_stats=True)
      (2): Dropout2d(p=0.5, inplace=False)
      (3): ReLU(inplace=True)
      (4): ConvTranspose2d(512, 256, kernel_size=(4, 4), stride=(2, 2), padding=(1, 1), bias=False)
      (5): BatchNorm2d(256, eps=1e-05, momentum=0.1, affine=True, track_running_stats=True)
      (6): Dropout2d(p=0.5, inplace=False)
      (7): ReLU(inplace=True)
      (8): ConvTranspose2d(256, 128, kernel_size=(4, 4), stride=(2, 2), padding=(1, 1), bias=False)
      (9): BatchNorm2d(128, eps=1e-05, momentum=0.1, affine=True, track_running_stats=True)
      (10): Dropout2d(p=0.5, inplace=False)
      (11): ReLU(inplace=True)
      (12): ConvTranspose2d(128, 64, kernel_size=(4, 4), stride=(2, 2), padding=(1, 1), bias=False)
      (13): BatchNorm2d(64, eps=1e-05, momentum=0.1, affine=True, track_running_stats=True)
      (14): ReLU(inplace=True)
      (15): ConvTranspose2d(64, 19, kernel_size=(4, 4), stride=(2, 2), padding=(1, 1), bias=False)
    )
    (classifier): Conv2d(19, 7, kernel_size=(224, 224), stride=(1, 1))
    (smax): Softmax(dim=1)
    (sigmoid): Sigmoid()
  )
)
>>>>>>>>>>>>>>>>>>>>>>>Training<<<<<<<<<<<<<<<<<<<<<<<
